…
I0622 12:42:19.672256  6959 net.cpp:294] The NetState phase (0) differed from the phase (1) specified by a rule in layer accuracy
I0622 12:42:19.672365  6959 net.cpp:51] Initializing net from parameters: 
name: "CaffeNet"
state {
  phase: TRAIN
  level: 0
  stage: ""
}
layer {
  name: "data"
  type: "Data"
  top: "data"
  top: "label"
  include {
    phase: TRAIN
  }
  transform_param {
    mirror: true
    crop_size: 227
    mean_file: "/home/jingyun/Documents/wood-deeplearning/data/mean.binaryproto"
  }
  data_param {
    source: "/home/jingyun/Documents/wood-deeplearning/data/train_lmdb"
    batch_size: 256
    backend: LMDB
  }
}
layer {
  name: "conv1"
  type: "Convolution"
  bottom: "data"
  top: "conv1"
  param {
    lr_mult: 1
    decay_mult: 1
  }
  param {
    lr_mult: 2
    decay_mult: 0
  }
  convolution_param {
    num_output: 96
    kernel_size: 11
    stride: 4
    weight_filler {
      type: "gaussian"
      std: 0.01
    }
    bias_filler {
      type: "constant"
      value: 0
    }
  }
}
layer {
  name: "relu1"
  type: "ReLU"
  bottom: "conv1"
  top: "conv1"
}
layer {
  name: "pool1"
  type: "Pooling"
  bottom: "conv1"
  top: "pool1"
  pooling_param {
    pool: MAX
    kernel_size: 3
    stride: 2
  }
}
layer {
  name: "norm1"
  type: "LRN"
  bottom: "pool1"
  top: "norm1"
  lrn_param {
    local_size: 5
    alpha: 0.0001
    beta: 0.75
  }
}
layer {
  name: "conv2"
  type: "Convolution"
  bottom: "norm1"
  top: "conv2"
  param {
    lr_mult: 1
    decay_mult: 1
  }
  param {
    lr_mult: 2
    decay_mult: 0
  }
  convolution_param {
    num_output: 256
    pad: 2
    kernel_size: 5
    group: 2
    weight_filler {
      type: "gaussian"
      std: 0.01
    }
    bias_filler {
      type: "constant"
      value: 1
    }
  }
}
layer {
  name: "relu2"
  type: "ReLU"
  bottom: "conv2"
  top: "conv2"
}
layer {
  name: "pool2"
  type: "Pooling"
  bottom: "conv2"
  top: "pool2"
  pooling_param {
    pool: MAX
    kernel_size: 3
    stride: 2
  }
}
layer {
  name: "norm2"
  type: "LRN"
  bottom: "pool2"
  top: "norm2"
  lrn_param {
    local_size: 5
    alpha: 0.0001
    beta: 0.75
  }
}
layer {
  name: "conv3"
  type: "Convolution"
  bottom: "norm2"
  top: "conv3"
  param {
    lr_mult: 1
    decay_mult: 1
  }
  param {
    lr_mult: 2
    decay_mult: 0
  }
  convolution_param {
    num_output: 384
    pad: 1
    kernel_size: 3
    weight_filler {
      type: "gaussian"
      std: 0.01
    }
    bias_filler {
      type: "constant"
      value: 0
    }
  }
}
layer {
  name: "relu3"
  type: "ReLU"
  bottom: "conv3"
  top: "conv3"
}
layer {
  name: "conv4"
  type: "Convolution"
  bottom: "conv3"
  top: "conv4"
  param {
    lr_mult: 1
    decay_mult: 1
  }
  param {
    lr_mult: 2
    decay_mult: 0
  }
  convolution_param {
    num_output: 384
    pad: 1
    kernel_size: 3
    group: 2
    weight_filler {
      type: "gaussian"
      std: 0.01
    }
    bias_filler {
      type: "constant"
      value: 1
    }
  }
}
layer {
  name: "relu4"
  type: "ReLU"
  bottom: "conv4"
  top: "conv4"
}
layer {
  name: "conv5"
  type: "Convolution"
  bottom: "conv4"
  top: "conv5"
  param {
    lr_mult: 1
    decay_mult: 1
  }
  param {
    lr_mult: 2
    decay_mult: 0
  }
  convolution_param {
    num_output: 256
    pad: 1
    kernel_size: 3
    group: 2
    weight_filler {
      type: "gaussian"
      std: 0.01
    }
    bias_filler {
      type: "constant"
      value: 1
    }
  }
}
layer {
  name: "relu5"
  type: "ReLU"
  bottom: "conv5"
  top: "conv5"
}
layer {
  name: "pool5"
  type: "Pooling"
  bottom: "conv5"
  top: "pool5"
  pooling_param {
    pool: MAX
    kernel_size: 3
    stride: 2
  }
}
layer {
  name: "fc6"
  type: "InnerProduct"
  bottom: "pool5"
  top: "fc6"
  param {
    lr_mult: 1
    decay_mult: 1
  }
  param {
    lr_mult: 2
    decay_mult: 0
  }
  inner_product_param {
    num_output: 4096
    weight_filler {
      type: "gaussian"
      std: 0.005
    }
    bias_filler {
      type: "constant"
      value: 1
    }
  }
}
layer {
  name: "relu6"
  type: "ReLU"
  bottom: "fc6"
  top: "fc6"
}
layer {
  name: "drop6"
  type: "Dropout"
  bottom: "fc6"
  top: "fc6"
  dropout_param {
    dropout_ratio: 0.5
  }
}
layer {
  name: "fc7"
  type: "InnerProduct"
  bottom: "fc6"
  top: "fc7"
  param {
    lr_mult: 1
    decay_mult: 1
  }
  param {
    lr_mult: 2
    decay_mult: 0
  }
  inner_product_param {
    num_output: 4096
    weight_filler {
      type: "gaussian"
      std: 0.005
    }
    bias_filler {
      type: "constant"
      value: 1
    }
  }
}
layer {
  name: "relu7"
  type: "ReLU"
  bottom: "fc7"
  top: "fc7"
}
layer {
  name: "drop7"
  type: "Dropout"
  bottom: "fc7"
  top: "fc7"
  dropout_param {
    dropout_ratio: 0.5
  }
}
layer {
  name: "fc8-woods"
  type: "InnerProduct"
  bottom: "fc7"
  top: "fc8-woods"
  param {
    lr_mult: 1
    decay_mult: 1
  }
  param {
    lr_mult: 2
    decay_mult: 0
  }
  inner_product_param {
    num_output: 41
    weight_filler {
      type: "gaussian"
      std: 0.01
    }
    bias_filler {
      type: "constant"
      value: 0
    }
  }
}
layer {
  name: "loss"
  type: "SoftmaxWithLoss"
  bottom: "fc8-woods"
  bottom: "label"
  top: "loss"
}
I0622 12:42:19.672432  6959 layer_factory.hpp:77] Creating layer data
I0622 12:42:19.672503  6959 db_lmdb.cpp:35] Opened lmdb /home/jingyun/Documents/wood-deeplearning/data/train_lmdb
I0622 12:42:19.672521  6959 net.cpp:84] Creating Layer data
I0622 12:42:19.672526  6959 net.cpp:380] data -> data
I0622 12:42:19.672541  6959 net.cpp:380] data -> label
I0622 12:42:19.672550  6959 data_transformer.cpp:25] Loading mean file from: /home/jingyun/Documents/wood-deeplearning/data/mean.binaryproto
I0622 12:42:19.674648  6959 data_layer.cpp:45] output data size: 256,3,227,227
I0622 12:42:19.853117  6959 net.cpp:122] Setting up data
I0622 12:42:19.853135  6959 net.cpp:129] Top shape: 256 3 227 227 (39574272)
I0622 12:42:19.853139  6959 net.cpp:129] Top shape: 256 (256)
I0622 12:42:19.853142  6959 net.cpp:137] Memory required for data: 158298112
I0622 12:42:19.853147  6959 layer_factory.hpp:77] Creating layer conv1
I0622 12:42:19.853162  6959 net.cpp:84] Creating Layer conv1
I0622 12:42:19.853165  6959 net.cpp:406] conv1 <- data
I0622 12:42:19.853190  6959 net.cpp:380] conv1 -> conv1
I0622 12:42:20.275796  6959 net.cpp:122] Setting up conv1
I0622 12:42:20.275816  6959 net.cpp:129] Top shape: 256 96 55 55 (74342400)
I0622 12:42:20.275820  6959 net.cpp:137] Memory required for data: 455667712
I0622 12:42:20.275836  6959 layer_factory.hpp:77] Creating layer relu1
I0622 12:42:20.275846  6959 net.cpp:84] Creating Layer relu1
I0622 12:42:20.275848  6959 net.cpp:406] relu1 <- conv1
I0622 12:42:20.275851  6959 net.cpp:367] relu1 -> conv1 (in-place)
I0622 12:42:20.276260  6959 net.cpp:122] Setting up relu1
I0622 12:42:20.276269  6959 net.cpp:129] Top shape: 256 96 55 55 (74342400)
I0622 12:42:20.276271  6959 net.cpp:137] Memory required for data: 753037312
I0622 12:42:20.276273  6959 layer_factory.hpp:77] Creating layer pool1
I0622 12:42:20.276278  6959 net.cpp:84] Creating Layer pool1
I0622 12:42:20.276280  6959 net.cpp:406] pool1 <- conv1
I0622 12:42:20.276283  6959 net.cpp:380] pool1 -> pool1
I0622 12:42:20.276319  6959 net.cpp:122] Setting up pool1
I0622 12:42:20.276324  6959 net.cpp:129] Top shape: 256 96 27 27 (17915904)
I0622 12:42:20.276338  6959 net.cpp:137] Memory required for data: 824700928
I0622 12:42:20.276340  6959 layer_factory.hpp:77] Creating layer norm1
I0622 12:42:20.276347  6959 net.cpp:84] Creating Layer norm1
I0622 12:42:20.276350  6959 net.cpp:406] norm1 <- pool1
I0622 12:42:20.276352  6959 net.cpp:380] norm1 -> norm1
I0622 12:42:20.276492  6959 net.cpp:122] Setting up norm1
I0622 12:42:20.276499  6959 net.cpp:129] Top shape: 256 96 27 27 (17915904)
I0622 12:42:20.276500  6959 net.cpp:137] Memory required for data: 896364544
I0622 12:42:20.276502  6959 layer_factory.hpp:77] Creating layer conv2
I0622 12:42:20.276510  6959 net.cpp:84] Creating Layer conv2
I0622 12:42:20.276511  6959 net.cpp:406] conv2 <- norm1
I0622 12:42:20.276515  6959 net.cpp:380] conv2 -> conv2
I0622 12:42:20.280603  6959 net.cpp:122] Setting up conv2
I0622 12:42:20.280616  6959 net.cpp:129] Top shape: 256 256 27 27 (47775744)
I0622 12:42:20.280619  6959 net.cpp:137] Memory required for data: 1087467520
I0622 12:42:20.280627  6959 layer_factory.hpp:77] Creating layer relu2
I0622 12:42:20.280632  6959 net.cpp:84] Creating Layer relu2
I0622 12:42:20.280634  6959 net.cpp:406] relu2 <- conv2
I0622 12:42:20.280637  6959 net.cpp:367] relu2 -> conv2 (in-place)
I0622 12:42:20.280771  6959 net.cpp:122] Setting up relu2
I0622 12:42:20.280777  6959 net.cpp:129] Top shape: 256 256 27 27 (47775744)
I0622 12:42:20.280779  6959 net.cpp:137] Memory required for data: 1278570496
I0622 12:42:20.280781  6959 layer_factory.hpp:77] Creating layer pool2
I0622 12:42:20.280786  6959 net.cpp:84] Creating Layer pool2
I0622 12:42:20.280787  6959 net.cpp:406] pool2 <- conv2
I0622 12:42:20.280791  6959 net.cpp:380] pool2 -> pool2
I0622 12:42:20.280819  6959 net.cpp:122] Setting up pool2
I0622 12:42:20.280823  6959 net.cpp:129] Top shape: 256 256 13 13 (11075584)
I0622 12:42:20.280825  6959 net.cpp:137] Memory required for data: 1322872832
I0622 12:42:20.280827  6959 layer_factory.hpp:77] Creating layer norm2
I0622 12:42:20.280833  6959 net.cpp:84] Creating Layer norm2
I0622 12:42:20.280834  6959 net.cpp:406] norm2 <- pool2
I0622 12:42:20.280838  6959 net.cpp:380] norm2 -> norm2
I0622 12:42:20.281299  6959 net.cpp:122] Setting up norm2
I0622 12:42:20.281307  6959 net.cpp:129] Top shape: 256 256 13 13 (11075584)
I0622 12:42:20.281309  6959 net.cpp:137] Memory required for data: 1367175168
I0622 12:42:20.281311  6959 layer_factory.hpp:77] Creating layer conv3
I0622 12:42:20.281318  6959 net.cpp:84] Creating Layer conv3
I0622 12:42:20.281322  6959 net.cpp:406] conv3 <- norm2
I0622 12:42:20.281327  6959 net.cpp:380] conv3 -> conv3
I0622 12:42:20.289414  6959 net.cpp:122] Setting up conv3
I0622 12:42:20.289432  6959 net.cpp:129] Top shape: 256 384 13 13 (16613376)
I0622 12:42:20.289433  6959 net.cpp:137] Memory required for data: 1433628672
I0622 12:42:20.289443  6959 layer_factory.hpp:77] Creating layer relu3
I0622 12:42:20.289448  6959 net.cpp:84] Creating Layer relu3
I0622 12:42:20.289450  6959 net.cpp:406] relu3 <- conv3
I0622 12:42:20.289454  6959 net.cpp:367] relu3 -> conv3 (in-place)
I0622 12:42:20.289594  6959 net.cpp:122] Setting up relu3
I0622 12:42:20.289600  6959 net.cpp:129] Top shape: 256 384 13 13 (16613376)
I0622 12:42:20.289602  6959 net.cpp:137] Memory required for data: 1500082176
I0622 12:42:20.289604  6959 layer_factory.hpp:77] Creating layer conv4
I0622 12:42:20.289611  6959 net.cpp:84] Creating Layer conv4
I0622 12:42:20.289613  6959 net.cpp:406] conv4 <- conv3
I0622 12:42:20.289618  6959 net.cpp:380] conv4 -> conv4
I0622 12:42:20.296634  6959 net.cpp:122] Setting up conv4
I0622 12:42:20.296648  6959 net.cpp:129] Top shape: 256 384 13 13 (16613376)
I0622 12:42:20.296650  6959 net.cpp:137] Memory required for data: 1566535680
I0622 12:42:20.296656  6959 layer_factory.hpp:77] Creating layer relu4
I0622 12:42:20.296661  6959 net.cpp:84] Creating Layer relu4
I0622 12:42:20.296664  6959 net.cpp:406] relu4 <- conv4
I0622 12:42:20.296670  6959 net.cpp:367] relu4 -> conv4 (in-place)
I0622 12:42:20.296808  6959 net.cpp:122] Setting up relu4
I0622 12:42:20.296814  6959 net.cpp:129] Top shape: 256 384 13 13 (16613376)
I0622 12:42:20.296828  6959 net.cpp:137] Memory required for data: 1632989184
I0622 12:42:20.296830  6959 layer_factory.hpp:77] Creating layer conv5
I0622 12:42:20.296838  6959 net.cpp:84] Creating Layer conv5
I0622 12:42:20.296839  6959 net.cpp:406] conv5 <- conv4
I0622 12:42:20.296844  6959 net.cpp:380] conv5 -> conv5
I0622 12:42:20.302258  6959 net.cpp:122] Setting up conv5
I0622 12:42:20.302270  6959 net.cpp:129] Top shape: 256 256 13 13 (11075584)
I0622 12:42:20.302273  6959 net.cpp:137] Memory required for data: 1677291520
I0622 12:42:20.302283  6959 layer_factory.hpp:77] Creating layer relu5
I0622 12:42:20.302287  6959 net.cpp:84] Creating Layer relu5
I0622 12:42:20.302289  6959 net.cpp:406] relu5 <- conv5
I0622 12:42:20.302294  6959 net.cpp:367] relu5 -> conv5 (in-place)
I0622 12:42:20.302430  6959 net.cpp:122] Setting up relu5
I0622 12:42:20.302436  6959 net.cpp:129] Top shape: 256 256 13 13 (11075584)
I0622 12:42:20.302438  6959 net.cpp:137] Memory required for data: 1721593856
I0622 12:42:20.302440  6959 layer_factory.hpp:77] Creating layer pool5
I0622 12:42:20.302446  6959 net.cpp:84] Creating Layer pool5
I0622 12:42:20.302448  6959 net.cpp:406] pool5 <- conv5
I0622 12:42:20.302451  6959 net.cpp:380] pool5 -> pool5
I0622 12:42:20.302484  6959 net.cpp:122] Setting up pool5
I0622 12:42:20.302489  6959 net.cpp:129] Top shape: 256 256 6 6 (2359296)
I0622 12:42:20.302490  6959 net.cpp:137] Memory required for data: 1731031040
I0622 12:42:20.302491  6959 layer_factory.hpp:77] Creating layer fc6
I0622 12:42:20.302498  6959 net.cpp:84] Creating Layer fc6
I0622 12:42:20.302500  6959 net.cpp:406] fc6 <- pool5
I0622 12:42:20.302503  6959 net.cpp:380] fc6 -> fc6
I0622 12:42:20.589156  6959 net.cpp:122] Setting up fc6
I0622 12:42:20.589190  6959 net.cpp:129] Top shape: 256 4096 (1048576)
I0622 12:42:20.589193  6959 net.cpp:137] Memory required for data: 1735225344
I0622 12:42:20.589213  6959 layer_factory.hpp:77] Creating layer relu6
I0622 12:42:20.589220  6959 net.cpp:84] Creating Layer relu6
I0622 12:42:20.589221  6959 net.cpp:406] relu6 <- fc6
I0622 12:42:20.589228  6959 net.cpp:367] relu6 -> fc6 (in-place)
I0622 12:42:20.589751  6959 net.cpp:122] Setting up relu6
I0622 12:42:20.589758  6959 net.cpp:129] Top shape: 256 4096 (1048576)
I0622 12:42:20.589761  6959 net.cpp:137] Memory required for data: 1739419648
I0622 12:42:20.589762  6959 layer_factory.hpp:77] Creating layer drop6
I0622 12:42:20.589767  6959 net.cpp:84] Creating Layer drop6
I0622 12:42:20.589769  6959 net.cpp:406] drop6 <- fc6
I0622 12:42:20.589772  6959 net.cpp:367] drop6 -> fc6 (in-place)
I0622 12:42:20.589792  6959 net.cpp:122] Setting up drop6
I0622 12:42:20.589810  6959 net.cpp:129] Top shape: 256 4096 (1048576)
I0622 12:42:20.589812  6959 net.cpp:137] Memory required for data: 1743613952
I0622 12:42:20.589814  6959 layer_factory.hpp:77] Creating layer fc7
I0622 12:42:20.589834  6959 net.cpp:84] Creating Layer fc7
I0622 12:42:20.589838  6959 net.cpp:406] fc7 <- fc6
I0622 12:42:20.589841  6959 net.cpp:380] fc7 -> fc7
I0622 12:42:20.715512  6959 net.cpp:122] Setting up fc7
I0622 12:42:20.715531  6959 net.cpp:129] Top shape: 256 4096 (1048576)
I0622 12:42:20.715533  6959 net.cpp:137] Memory required for data: 1747808256
I0622 12:42:20.715539  6959 layer_factory.hpp:77] Creating layer relu7
I0622 12:42:20.715545  6959 net.cpp:84] Creating Layer relu7
I0622 12:42:20.715548  6959 net.cpp:406] relu7 <- fc7
I0622 12:42:20.715553  6959 net.cpp:367] relu7 -> fc7 (in-place)
I0622 12:42:20.715760  6959 net.cpp:122] Setting up relu7
I0622 12:42:20.715766  6959 net.cpp:129] Top shape: 256 4096 (1048576)
I0622 12:42:20.715770  6959 net.cpp:137] Memory required for data: 1752002560
I0622 12:42:20.715770  6959 layer_factory.hpp:77] Creating layer drop7
I0622 12:42:20.715775  6959 net.cpp:84] Creating Layer drop7
I0622 12:42:20.715776  6959 net.cpp:406] drop7 <- fc7
I0622 12:42:20.715780  6959 net.cpp:367] drop7 -> fc7 (in-place)
I0622 12:42:20.715795  6959 net.cpp:122] Setting up drop7
I0622 12:42:20.715798  6959 net.cpp:129] Top shape: 256 4096 (1048576)
I0622 12:42:20.715809  6959 net.cpp:137] Memory required for data: 1756196864
I0622 12:42:20.715813  6959 layer_factory.hpp:77] Creating layer fc8-woods
I0622 12:42:20.715817  6959 net.cpp:84] Creating Layer fc8-woods
I0622 12:42:20.715821  6959 net.cpp:406] fc8-woods <- fc7
I0622 12:42:20.715824  6959 net.cpp:380] fc8-woods -> fc8-woods
I0622 12:42:20.717620  6959 net.cpp:122] Setting up fc8-woods
I0622 12:42:20.717628  6959 net.cpp:129] Top shape: 256 41 (10496)
I0622 12:42:20.717630  6959 net.cpp:137] Memory required for data: 1756238848
I0622 12:42:20.717634  6959 layer_factory.hpp:77] Creating layer loss
I0622 12:42:20.717639  6959 net.cpp:84] Creating Layer loss
I0622 12:42:20.717641  6959 net.cpp:406] loss <- fc8-woods
I0622 12:42:20.717643  6959 net.cpp:406] loss <- label
I0622 12:42:20.717648  6959 net.cpp:380] loss -> loss
I0622 12:42:20.717658  6959 layer_factory.hpp:77] Creating layer loss
…
I0622 12:42:20.718708  6959 net.cpp:294] The NetState phase (1) differed from the phase (0) specified by a rule in layer data
I0622 12:42:20.718817  6959 net.cpp:51] Initializing net from parameters: 
name: "CaffeNet"
state {
  phase: TEST
}
layer {
  name: "data"
  type: "Data"
  top: "data"
  top: "label"
  include {
    phase: TEST
  }
  transform_param {
    mirror: false
    crop_size: 227
    mean_file: "/home/jingyun/Documents/wood-deeplearning/data/mean.binaryproto"
  }
  data_param {
    source: "/home/jingyun/Documents/wood-deeplearning/data/validation_lmdb"
    batch_size: 50
    backend: LMDB
  }
}
layer {
  name: "conv1"
  type: "Convolution"
  bottom: "data"
  top: "conv1"
  param {
    lr_mult: 1
    decay_mult: 1
  }
  param {
    lr_mult: 2
    decay_mult: 0
  }
  convolution_param {
    num_output: 96
    kernel_size: 11
    stride: 4
    weight_filler {
      type: "gaussian"
      std: 0.01
    }
    bias_filler {
      type: "constant"
      value: 0
    }
  }
}
layer {
  name: "relu1"
  type: "ReLU"
  bottom: "conv1"
  top: "conv1"
}
layer {
  name: "pool1"
  type: "Pooling"
  bottom: "conv1"
  top: "pool1"
  pooling_param {
    pool: MAX
    kernel_size: 3
    stride: 2
  }
}
layer {
  name: "norm1"
  type: "LRN"
  bottom: "pool1"
  top: "norm1"
  lrn_param {
    local_size: 5
    alpha: 0.0001
    beta: 0.75
  }
}
layer {
  name: "conv2"
  type: "Convolution"
  bottom: "norm1"
  top: "conv2"
  param {
    lr_mult: 1
    decay_mult: 1
  }
  param {
    lr_mult: 2
    decay_mult: 0
  }
  convolution_param {
    num_output: 256
    pad: 2
    kernel_size: 5
    group: 2
    weight_filler {
      type: "gaussian"
      std: 0.01
    }
    bias_filler {
      type: "constant"
      value: 1
    }
  }
}
layer {
  name: "relu2"
  type: "ReLU"
  bottom: "conv2"
  top: "conv2"
}
layer {
  name: "pool2"
  type: "Pooling"
  bottom: "conv2"
  top: "pool2"
  pooling_param {
    pool: MAX
    kernel_size: 3
    stride: 2
  }
}
layer {
  name: "norm2"
  type: "LRN"
  bottom: "pool2"
  top: "norm2"
  lrn_param {
    local_size: 5
    alpha: 0.0001
    beta: 0.75
  }
}
layer {
  name: "conv3"
  type: "Convolution"
  bottom: "norm2"
  top: "conv3"
  param {
    lr_mult: 1
    decay_mult: 1
  }
  param {
    lr_mult: 2
    decay_mult: 0
  }
  convolution_param {
    num_output: 384
    pad: 1
    kernel_size: 3
    weight_filler {
      type: "gaussian"
      std: 0.01
    }
    bias_filler {
      type: "constant"
      value: 0
    }
  }
}
layer {
  name: "relu3"
  type: "ReLU"
  bottom: "conv3"
  top: "conv3"
}
layer {
  name: "conv4"
  type: "Convolution"
  bottom: "conv3"
  top: "conv4"
  param {
    lr_mult: 1
    decay_mult: 1
  }
  param {
    lr_mult: 2
    decay_mult: 0
  }
  convolution_param {
    num_output: 384
    pad: 1
    kernel_size: 3
    group: 2
    weight_filler {
      type: "gaussian"
      std: 0.01
    }
    bias_filler {
      type: "constant"
      value: 1
    }
  }
}
layer {
  name: "relu4"
  type: "ReLU"
  bottom: "conv4"
  top: "conv4"
}
layer {
  name: "conv5"
  type: "Convolution"
  bottom: "conv4"
  top: "conv5"
  param {
    lr_mult: 1
    decay_mult: 1
  }
  param {
    lr_mult: 2
    decay_mult: 0
  }
  convolution_param {
    num_output: 256
    pad: 1
    kernel_size: 3
    group: 2
    weight_filler {
      type: "gaussian"
      std: 0.01
    }
    bias_filler {
      type: "constant"
      value: 1
    }
  }
}
layer {
  name: "relu5"
  type: "ReLU"
  bottom: "conv5"
  top: "conv5"
}
layer {
  name: "pool5"
  type: "Pooling"
  bottom: "conv5"
  top: "pool5"
  pooling_param {
    pool: MAX
    kernel_size: 3
    stride: 2
  }
}
layer {
  name: "fc6"
  type: "InnerProduct"
  bottom: "pool5"
  top: "fc6"
  param {
    lr_mult: 1
    decay_mult: 1
  }
  param {
    lr_mult: 2
    decay_mult: 0
  }
  inner_product_param {
    num_output: 4096
    weight_filler {
      type: "gaussian"
      std: 0.005
    }
    bias_filler {
      type: "constant"
      value: 1
    }
  }
}
layer {
  name: "relu6"
  type: "ReLU"
  bottom: "fc6"
  top: "fc6"
}
layer {
  name: "drop6"
  type: "Dropout"
  bottom: "fc6"
  top: "fc6"
  dropout_param {
    dropout_ratio: 0.5
  }
}
layer {
  name: "fc7"
  type: "InnerProduct"
  bottom: "fc6"
  top: "fc7"
  param {
    lr_mult: 1
    decay_mult: 1
  }
  param {
    lr_mult: 2
    decay_mult: 0
  }
  inner_product_param {
    num_output: 4096
    weight_filler {
      type: "gaussian"
      std: 0.005
    }
    bias_filler {
      type: "constant"
      value: 1
    }
  }
}
layer {
  name: "relu7"
  type: "ReLU"
  bottom: "fc7"
  top: "fc7"
}
layer {
  name: "drop7"
  type: "Dropout"
  bottom: "fc7"
  top: "fc7"
  dropout_param {
    dropout_ratio: 0.5
  }
}
layer {
  name: "fc8-woods"
  type: "InnerProduct"
  bottom: "fc7"
  top: "fc8-woods"
  param {
    lr_mult: 1
    decay_mult: 1
  }
  param {
    lr_mult: 2
    decay_mult: 0
  }
  inner_product_param {
    num_output: 41
    weight_filler {
      type: "gaussian"
      std: 0.01
    }
    bias_filler {
      type: "constant"
      value: 0
    }
  }
}
layer {
  name: "accuracy"
  type: "Accuracy"
  bottom: "fc8-woods"
  bottom: "label"
  top: "accuracy"
  include {
    phase: TEST
  }
}
layer {
  name: "loss"
  type: "SoftmaxWithLoss"
  bottom: "fc8-woods"
  bottom: "label"
  top: "loss"
}
I0622 12:42:20.718893  6959 layer_factory.hpp:77] Creating layer data
I0622 12:42:20.718987  6959 db_lmdb.cpp:35] Opened lmdb /home/jingyun/Documents/wood-deeplearning/data/validation_lmdb
I0622 12:42:20.718999  6959 net.cpp:84] Creating Layer data
I0622 12:42:20.719002  6959 net.cpp:380] data -> data
I0622 12:42:20.719008  6959 net.cpp:380] data -> label
I0622 12:42:20.719013  6959 data_transformer.cpp:25] Loading mean file from: /home/jingyun/Documents/wood-deeplearning/data/mean.binaryproto
I0622 12:42:20.719997  6959 data_layer.cpp:45] output data size: 50,3,227,227
I0622 12:42:20.756953  6959 net.cpp:122] Setting up data
I0622 12:42:20.756969  6959 net.cpp:129] Top shape: 50 3 227 227 (7729350)
I0622 12:42:20.756973  6959 net.cpp:129] Top shape: 50 (50)
I0622 12:42:20.756976  6959 net.cpp:137] Memory required for data: 30917600
I0622 12:42:20.756980  6959 layer_factory.hpp:77] Creating layer label_data_1_split
I0622 12:42:20.756989  6959 net.cpp:84] Creating Layer label_data_1_split
I0622 12:42:20.756990  6959 net.cpp:406] label_data_1_split <- label
I0622 12:42:20.756995  6959 net.cpp:380] label_data_1_split -> label_data_1_split_0
I0622 12:42:20.757002  6959 net.cpp:380] label_data_1_split -> label_data_1_split_1
I0622 12:42:20.757118  6959 net.cpp:122] Setting up label_data_1_split
I0622 12:42:20.757129  6959 net.cpp:129] Top shape: 50 (50)
I0622 12:42:20.757133  6959 net.cpp:129] Top shape: 50 (50)
I0622 12:42:20.757134  6959 net.cpp:137] Memory required for data: 30918000
I0622 12:42:20.757138  6959 layer_factory.hpp:77] Creating layer conv1
I0622 12:42:20.757145  6959 net.cpp:84] Creating Layer conv1
I0622 12:42:20.757148  6959 net.cpp:406] conv1 <- data
I0622 12:42:20.757153  6959 net.cpp:380] conv1 -> conv1
I0622 12:42:20.760643  6959 net.cpp:122] Setting up conv1
I0622 12:42:20.760654  6959 net.cpp:129] Top shape: 50 96 55 55 (14520000)
I0622 12:42:20.760658  6959 net.cpp:137] Memory required for data: 88998000
I0622 12:42:20.760665  6959 layer_factory.hpp:77] Creating layer relu1
I0622 12:42:20.760671  6959 net.cpp:84] Creating Layer relu1
I0622 12:42:20.760674  6959 net.cpp:406] relu1 <- conv1
I0622 12:42:20.760679  6959 net.cpp:367] relu1 -> conv1 (in-place)
I0622 12:42:20.761109  6959 net.cpp:122] Setting up relu1
I0622 12:42:20.761118  6959 net.cpp:129] Top shape: 50 96 55 55 (14520000)
I0622 12:42:20.761121  6959 net.cpp:137] Memory required for data: 147078000
I0622 12:42:20.761123  6959 layer_factory.hpp:77] Creating layer pool1
I0622 12:42:20.761128  6959 net.cpp:84] Creating Layer pool1
I0622 12:42:20.761132  6959 net.cpp:406] pool1 <- conv1
I0622 12:42:20.761134  6959 net.cpp:380] pool1 -> pool1
I0622 12:42:20.761168  6959 net.cpp:122] Setting up pool1
I0622 12:42:20.761173  6959 net.cpp:129] Top shape: 50 96 27 27 (3499200)
I0622 12:42:20.761174  6959 net.cpp:137] Memory required for data: 161074800
I0622 12:42:20.761176  6959 layer_factory.hpp:77] Creating layer norm1
I0622 12:42:20.761181  6959 net.cpp:84] Creating Layer norm1
I0622 12:42:20.761183  6959 net.cpp:406] norm1 <- pool1
I0622 12:42:20.761185  6959 net.cpp:380] norm1 -> norm1
I0622 12:42:20.761327  6959 net.cpp:122] Setting up norm1
I0622 12:42:20.761333  6959 net.cpp:129] Top shape: 50 96 27 27 (3499200)
I0622 12:42:20.761335  6959 net.cpp:137] Memory required for data: 175071600
I0622 12:42:20.761337  6959 layer_factory.hpp:77] Creating layer conv2
I0622 12:42:20.761343  6959 net.cpp:84] Creating Layer conv2
I0622 12:42:20.761345  6959 net.cpp:406] conv2 <- norm1
I0622 12:42:20.761349  6959 net.cpp:380] conv2 -> conv2
I0622 12:42:20.765599  6959 net.cpp:122] Setting up conv2
I0622 12:42:20.765620  6959 net.cpp:129] Top shape: 50 256 27 27 (9331200)
I0622 12:42:20.765624  6959 net.cpp:137] Memory required for data: 212396400
I0622 12:42:20.765630  6959 layer_factory.hpp:77] Creating layer relu2
I0622 12:42:20.765635  6959 net.cpp:84] Creating Layer relu2
I0622 12:42:20.765637  6959 net.cpp:406] relu2 <- conv2
I0622 12:42:20.765641  6959 net.cpp:367] relu2 -> conv2 (in-place)
I0622 12:42:20.765852  6959 net.cpp:122] Setting up relu2
I0622 12:42:20.765858  6959 net.cpp:129] Top shape: 50 256 27 27 (9331200)
I0622 12:42:20.765861  6959 net.cpp:137] Memory required for data: 249721200
I0622 12:42:20.765862  6959 layer_factory.hpp:77] Creating layer pool2
I0622 12:42:20.765867  6959 net.cpp:84] Creating Layer pool2
I0622 12:42:20.765871  6959 net.cpp:406] pool2 <- conv2
I0622 12:42:20.765873  6959 net.cpp:380] pool2 -> pool2
I0622 12:42:20.765920  6959 net.cpp:122] Setting up pool2
I0622 12:42:20.765938  6959 net.cpp:129] Top shape: 50 256 13 13 (2163200)
I0622 12:42:20.765940  6959 net.cpp:137] Memory required for data: 258374000
I0622 12:42:20.765943  6959 layer_factory.hpp:77] Creating layer norm2
I0622 12:42:20.765964  6959 net.cpp:84] Creating Layer norm2
I0622 12:42:20.765966  6959 net.cpp:406] norm2 <- pool2
I0622 12:42:20.765982  6959 net.cpp:380] norm2 -> norm2
I0622 12:42:20.766449  6959 net.cpp:122] Setting up norm2
I0622 12:42:20.766458  6959 net.cpp:129] Top shape: 50 256 13 13 (2163200)
I0622 12:42:20.766459  6959 net.cpp:137] Memory required for data: 267026800
I0622 12:42:20.766461  6959 layer_factory.hpp:77] Creating layer conv3
I0622 12:42:20.766468  6959 net.cpp:84] Creating Layer conv3
I0622 12:42:20.766471  6959 net.cpp:406] conv3 <- norm2
I0622 12:42:20.766474  6959 net.cpp:380] conv3 -> conv3
I0622 12:42:20.777977  6959 net.cpp:122] Setting up conv3
I0622 12:42:20.777994  6959 net.cpp:129] Top shape: 50 384 13 13 (3244800)
I0622 12:42:20.777997  6959 net.cpp:137] Memory required for data: 280006000
I0622 12:42:20.778008  6959 layer_factory.hpp:77] Creating layer relu3
I0622 12:42:20.778014  6959 net.cpp:84] Creating Layer relu3
I0622 12:42:20.778017  6959 net.cpp:406] relu3 <- conv3
I0622 12:42:20.778028  6959 net.cpp:367] relu3 -> conv3 (in-place)
I0622 12:42:20.778177  6959 net.cpp:122] Setting up relu3
I0622 12:42:20.778182  6959 net.cpp:129] Top shape: 50 384 13 13 (3244800)
I0622 12:42:20.778185  6959 net.cpp:137] Memory required for data: 292985200
I0622 12:42:20.778187  6959 layer_factory.hpp:77] Creating layer conv4
I0622 12:42:20.778194  6959 net.cpp:84] Creating Layer conv4
I0622 12:42:20.778198  6959 net.cpp:406] conv4 <- conv3
I0622 12:42:20.778201  6959 net.cpp:380] conv4 -> conv4
I0622 12:42:20.785239  6959 net.cpp:122] Setting up conv4
I0622 12:42:20.785254  6959 net.cpp:129] Top shape: 50 384 13 13 (3244800)
I0622 12:42:20.785255  6959 net.cpp:137] Memory required for data: 305964400
I0622 12:42:20.785260  6959 layer_factory.hpp:77] Creating layer relu4
I0622 12:42:20.785266  6959 net.cpp:84] Creating Layer relu4
I0622 12:42:20.785269  6959 net.cpp:406] relu4 <- conv4
I0622 12:42:20.785274  6959 net.cpp:367] relu4 -> conv4 (in-place)
I0622 12:42:20.785410  6959 net.cpp:122] Setting up relu4
I0622 12:42:20.785418  6959 net.cpp:129] Top shape: 50 384 13 13 (3244800)
I0622 12:42:20.785419  6959 net.cpp:137] Memory required for data: 318943600
I0622 12:42:20.785421  6959 layer_factory.hpp:77] Creating layer conv5
I0622 12:42:20.785428  6959 net.cpp:84] Creating Layer conv5
I0622 12:42:20.785431  6959 net.cpp:406] conv5 <- conv4
I0622 12:42:20.785435  6959 net.cpp:380] conv5 -> conv5
I0622 12:42:20.792799  6959 net.cpp:122] Setting up conv5
I0622 12:42:20.792810  6959 net.cpp:129] Top shape: 50 256 13 13 (2163200)
I0622 12:42:20.792814  6959 net.cpp:137] Memory required for data: 327596400
I0622 12:42:20.792820  6959 layer_factory.hpp:77] Creating layer relu5
I0622 12:42:20.792825  6959 net.cpp:84] Creating Layer relu5
I0622 12:42:20.792829  6959 net.cpp:406] relu5 <- conv5
I0622 12:42:20.792832  6959 net.cpp:367] relu5 -> conv5 (in-place)
I0622 12:42:20.795349  6959 net.cpp:122] Setting up relu5
I0622 12:42:20.795369  6959 net.cpp:129] Top shape: 50 256 13 13 (2163200)
I0622 12:42:20.795372  6959 net.cpp:137] Memory required for data: 336249200
I0622 12:42:20.795375  6959 layer_factory.hpp:77] Creating layer pool5
I0622 12:42:20.795382  6959 net.cpp:84] Creating Layer pool5
I0622 12:42:20.795384  6959 net.cpp:406] pool5 <- conv5
I0622 12:42:20.795388  6959 net.cpp:380] pool5 -> pool5
I0622 12:42:20.795482  6959 net.cpp:122] Setting up pool5
I0622 12:42:20.795488  6959 net.cpp:129] Top shape: 50 256 6 6 (460800)
I0622 12:42:20.795490  6959 net.cpp:137] Memory required for data: 338092400
I0622 12:42:20.795492  6959 layer_factory.hpp:77] Creating layer fc6
I0622 12:42:20.795497  6959 net.cpp:84] Creating Layer fc6
I0622 12:42:20.795500  6959 net.cpp:406] fc6 <- pool5
I0622 12:42:20.795505  6959 net.cpp:380] fc6 -> fc6
I0622 12:42:21.078709  6959 net.cpp:122] Setting up fc6
I0622 12:42:21.078727  6959 net.cpp:129] Top shape: 50 4096 (204800)
I0622 12:42:21.078729  6959 net.cpp:137] Memory required for data: 338911600
I0622 12:42:21.078737  6959 layer_factory.hpp:77] Creating layer relu6
I0622 12:42:21.078742  6959 net.cpp:84] Creating Layer relu6
I0622 12:42:21.078745  6959 net.cpp:406] relu6 <- fc6
I0622 12:42:21.078749  6959 net.cpp:367] relu6 -> fc6 (in-place)
I0622 12:42:21.079329  6959 net.cpp:122] Setting up relu6
I0622 12:42:21.079337  6959 net.cpp:129] Top shape: 50 4096 (204800)
I0622 12:42:21.079340  6959 net.cpp:137] Memory required for data: 339730800
I0622 12:42:21.079342  6959 layer_factory.hpp:77] Creating layer drop6
I0622 12:42:21.079347  6959 net.cpp:84] Creating Layer drop6
I0622 12:42:21.079349  6959 net.cpp:406] drop6 <- fc6
I0622 12:42:21.079352  6959 net.cpp:367] drop6 -> fc6 (in-place)
I0622 12:42:21.079376  6959 net.cpp:122] Setting up drop6
I0622 12:42:21.079380  6959 net.cpp:129] Top shape: 50 4096 (204800)
I0622 12:42:21.079382  6959 net.cpp:137] Memory required for data: 340550000
I0622 12:42:21.079385  6959 layer_factory.hpp:77] Creating layer fc7
I0622 12:42:21.079390  6959 net.cpp:84] Creating Layer fc7
I0622 12:42:21.079391  6959 net.cpp:406] fc7 <- fc6
I0622 12:42:21.079417  6959 net.cpp:380] fc7 -> fc7
I0622 12:42:21.204610  6959 net.cpp:122] Setting up fc7
I0622 12:42:21.204629  6959 net.cpp:129] Top shape: 50 4096 (204800)
I0622 12:42:21.204632  6959 net.cpp:137] Memory required for data: 341369200
I0622 12:42:21.204638  6959 layer_factory.hpp:77] Creating layer relu7
I0622 12:42:21.204646  6959 net.cpp:84] Creating Layer relu7
I0622 12:42:21.204648  6959 net.cpp:406] relu7 <- fc7
I0622 12:42:21.204653  6959 net.cpp:367] relu7 -> fc7 (in-place)
I0622 12:42:21.204870  6959 net.cpp:122] Setting up relu7
I0622 12:42:21.204877  6959 net.cpp:129] Top shape: 50 4096 (204800)
I0622 12:42:21.204879  6959 net.cpp:137] Memory required for data: 342188400
I0622 12:42:21.204880  6959 layer_factory.hpp:77] Creating layer drop7
I0622 12:42:21.204885  6959 net.cpp:84] Creating Layer drop7
I0622 12:42:21.204887  6959 net.cpp:406] drop7 <- fc7
I0622 12:42:21.204891  6959 net.cpp:367] drop7 -> fc7 (in-place)
I0622 12:42:21.204912  6959 net.cpp:122] Setting up drop7
I0622 12:42:21.204917  6959 net.cpp:129] Top shape: 50 4096 (204800)
I0622 12:42:21.204921  6959 net.cpp:137] Memory required for data: 343007600
I0622 12:42:21.204922  6959 layer_factory.hpp:77] Creating layer fc8-woods
I0622 12:42:21.204926  6959 net.cpp:84] Creating Layer fc8-woods
I0622 12:42:21.204929  6959 net.cpp:406] fc8-woods <- fc7
I0622 12:42:21.204949  6959 net.cpp:380] fc8-woods -> fc8-woods
I0622 12:42:21.206178  6959 net.cpp:122] Setting up fc8-woods
I0622 12:42:21.206184  6959 net.cpp:129] Top shape: 50 41 (2050)
I0622 12:42:21.206187  6959 net.cpp:137] Memory required for data: 343015800
I0622 12:42:21.206190  6959 layer_factory.hpp:77] Creating layer fc8-woods_fc8-woods_0_split
I0622 12:42:21.206193  6959 net.cpp:84] Creating Layer fc8-woods_fc8-woods_0_split
I0622 12:42:21.206195  6959 net.cpp:406] fc8-woods_fc8-woods_0_split <- fc8-woods
I0622 12:42:21.206199  6959 net.cpp:380] fc8-woods_fc8-woods_0_split -> fc8-woods_fc8-woods_0_split_0
I0622 12:42:21.206214  6959 net.cpp:380] fc8-woods_fc8-woods_0_split -> fc8-woods_fc8-woods_0_split_1
I0622 12:42:21.206243  6959 net.cpp:122] Setting up fc8-woods_fc8-woods_0_split
I0622 12:42:21.206248  6959 net.cpp:129] Top shape: 50 41 (2050)
I0622 12:42:21.206249  6959 net.cpp:129] Top shape: 50 41 (2050)
I0622 12:42:21.206251  6959 net.cpp:137] Memory required for data: 343032200
I0622 12:42:21.206254  6959 layer_factory.hpp:77] Creating layer accuracy
I0622 12:42:21.206257  6959 net.cpp:84] Creating Layer accuracy
I0622 12:42:21.206259  6959 net.cpp:406] accuracy <- fc8-woods_fc8-woods_0_split_0
I0622 12:42:21.206262  6959 net.cpp:406] accuracy <- label_data_1_split_0
I0622 12:42:21.206265  6959 net.cpp:380] accuracy -> accuracy
…
